__________________________________________________________________________________________________
Layer (type)                    Output Shape         Param #     Connected to
==================================================================================================
data (InputLayer)               (None, 256, 256, 1)  0
__________________________________________________________________________________________________
conv1_zeropadding (ZeroPadding2 (None, 262, 262, 1)  0           data[0][0]
__________________________________________________________________________________________________
conv1 (Conv2D)                  (None, 128, 128, 64) 3136        conv1_zeropadding[0][0]
__________________________________________________________________________________________________
bn_conv1 (BatchNormalization)   (None, 128, 128, 64) 256         conv1[0][0]
__________________________________________________________________________________________________
scale_conv1 (Scale)             (None, 128, 128, 64) 128         bn_conv1[0][0]
__________________________________________________________________________________________________
conv1_relu (Activation)         (None, 128, 128, 64) 0           scale_conv1[0][0]
__________________________________________________________________________________________________
pool1 (MaxPooling2D)            (None, 64, 64, 64)   0           conv1_relu[0][0]
__________________________________________________________________________________________________
res2a_branch2a (Conv2D)         (None, 64, 64, 64)   4096        pool1[0][0]
__________________________________________________________________________________________________
bn2a_branch2a (BatchNormalizati (None, 64, 64, 64)   256         res2a_branch2a[0][0]
__________________________________________________________________________________________________
scale2a_branch2a (Scale)        (None, 64, 64, 64)   128         bn2a_branch2a[0][0]
__________________________________________________________________________________________________
res2a_branch2a_relu (Activation (None, 64, 64, 64)   0           scale2a_branch2a[0][0]
__________________________________________________________________________________________________
res2a_branch2b_zeropadding (Zer (None, 66, 66, 64)   0           res2a_branch2a_relu[0][0]
__________________________________________________________________________________________________
res2a_branch2b (Conv2D)         (None, 64, 64, 64)   36864       res2a_branch2b_zeropadding[0][0]
__________________________________________________________________________________________________
bn2a_branch2b (BatchNormalizati (None, 64, 64, 64)   256         res2a_branch2b[0][0]
__________________________________________________________________________________________________
scale2a_branch2b (Scale)        (None, 64, 64, 64)   128         bn2a_branch2b[0][0]
__________________________________________________________________________________________________
res2a_branch2b_relu (Activation (None, 64, 64, 64)   0           scale2a_branch2b[0][0]
__________________________________________________________________________________________________
res2a_branch2c (Conv2D)         (None, 64, 64, 256)  16384       res2a_branch2b_relu[0][0]
__________________________________________________________________________________________________
res2a_branch1 (Conv2D)          (None, 64, 64, 256)  16384       pool1[0][0]
__________________________________________________________________________________________________
bn2a_branch2c (BatchNormalizati (None, 64, 64, 256)  1024        res2a_branch2c[0][0]
__________________________________________________________________________________________________
bn2a_branch1 (BatchNormalizatio (None, 64, 64, 256)  1024        res2a_branch1[0][0]
__________________________________________________________________________________________________
scale2a_branch2c (Scale)        (None, 64, 64, 256)  512         bn2a_branch2c[0][0]
__________________________________________________________________________________________________
scale2a_branch1 (Scale)         (None, 64, 64, 256)  512         bn2a_branch1[0][0]
__________________________________________________________________________________________________
res2a (Add)                     (None, 64, 64, 256)  0           scale2a_branch2c[0][0]
                                                                 scale2a_branch1[0][0]
__________________________________________________________________________________________________
res2a_relu (Activation)         (None, 64, 64, 256)  0           res2a[0][0]
__________________________________________________________________________________________________
res2b_branch2a (Conv2D)         (None, 64, 64, 64)   16384       res2a_relu[0][0]
__________________________________________________________________________________________________
bn2b_branch2a (BatchNormalizati (None, 64, 64, 64)   256         res2b_branch2a[0][0]
__________________________________________________________________________________________________
scale2b_branch2a (Scale)        (None, 64, 64, 64)   128         bn2b_branch2a[0][0]
__________________________________________________________________________________________________
res2b_branch2a_relu (Activation (None, 64, 64, 64)   0           scale2b_branch2a[0][0]
__________________________________________________________________________________________________
res2b_branch2b_zeropadding (Zer (None, 66, 66, 64)   0           res2b_branch2a_relu[0][0]
__________________________________________________________________________________________________
res2b_branch2b (Conv2D)         (None, 64, 64, 64)   36864       res2b_branch2b_zeropadding[0][0]
__________________________________________________________________________________________________
bn2b_branch2b (BatchNormalizati (None, 64, 64, 64)   256         res2b_branch2b[0][0]
__________________________________________________________________________________________________
scale2b_branch2b (Scale)        (None, 64, 64, 64)   128         bn2b_branch2b[0][0]
__________________________________________________________________________________________________
res2b_branch2b_relu (Activation (None, 64, 64, 64)   0           scale2b_branch2b[0][0]
__________________________________________________________________________________________________
res2b_branch2c (Conv2D)         (None, 64, 64, 256)  16384       res2b_branch2b_relu[0][0]
__________________________________________________________________________________________________
bn2b_branch2c (BatchNormalizati (None, 64, 64, 256)  1024        res2b_branch2c[0][0]
__________________________________________________________________________________________________
scale2b_branch2c (Scale)        (None, 64, 64, 256)  512         bn2b_branch2c[0][0]
__________________________________________________________________________________________________
res2b (Add)                     (None, 64, 64, 256)  0           scale2b_branch2c[0][0]
                                                                 res2a_relu[0][0]
__________________________________________________________________________________________________
res2b_relu (Activation)         (None, 64, 64, 256)  0           res2b[0][0]
__________________________________________________________________________________________________
res2c_branch2a (Conv2D)         (None, 64, 64, 64)   16384       res2b_relu[0][0]
__________________________________________________________________________________________________
bn2c_branch2a (BatchNormalizati (None, 64, 64, 64)   256         res2c_branch2a[0][0]
__________________________________________________________________________________________________
scale2c_branch2a (Scale)        (None, 64, 64, 64)   128         bn2c_branch2a[0][0]
__________________________________________________________________________________________________
res2c_branch2a_relu (Activation (None, 64, 64, 64)   0           scale2c_branch2a[0][0]
__________________________________________________________________________________________________
res2c_branch2b_zeropadding (Zer (None, 66, 66, 64)   0           res2c_branch2a_relu[0][0]
__________________________________________________________________________________________________
res2c_branch2b (Conv2D)         (None, 64, 64, 64)   36864       res2c_branch2b_zeropadding[0][0]
__________________________________________________________________________________________________
bn2c_branch2b (BatchNormalizati (None, 64, 64, 64)   256         res2c_branch2b[0][0]
__________________________________________________________________________________________________
scale2c_branch2b (Scale)        (None, 64, 64, 64)   128         bn2c_branch2b[0][0]
__________________________________________________________________________________________________
res2c_branch2b_relu (Activation (None, 64, 64, 64)   0           scale2c_branch2b[0][0]
__________________________________________________________________________________________________
res2c_branch2c (Conv2D)         (None, 64, 64, 256)  16384       res2c_branch2b_relu[0][0]
__________________________________________________________________________________________________
bn2c_branch2c (BatchNormalizati (None, 64, 64, 256)  1024        res2c_branch2c[0][0]
__________________________________________________________________________________________________
scale2c_branch2c (Scale)        (None, 64, 64, 256)  512         bn2c_branch2c[0][0]
__________________________________________________________________________________________________
res2c (Add)                     (None, 64, 64, 256)  0           scale2c_branch2c[0][0]
                                                                 res2b_relu[0][0]
__________________________________________________________________________________________________
res2c_relu (Activation)         (None, 64, 64, 256)  0           res2c[0][0]
__________________________________________________________________________________________________
res3a_branch2a (Conv2D)         (None, 32, 32, 128)  32768       res2c_relu[0][0]
__________________________________________________________________________________________________
bn3a_branch2a (BatchNormalizati (None, 32, 32, 128)  512         res3a_branch2a[0][0]
__________________________________________________________________________________________________
scale3a_branch2a (Scale)        (None, 32, 32, 128)  256         bn3a_branch2a[0][0]
__________________________________________________________________________________________________
res3a_branch2a_relu (Activation (None, 32, 32, 128)  0           scale3a_branch2a[0][0]
__________________________________________________________________________________________________
res3a_branch2b_zeropadding (Zer (None, 34, 34, 128)  0           res3a_branch2a_relu[0][0]
__________________________________________________________________________________________________
res3a_branch2b (Conv2D)         (None, 32, 32, 128)  147456      res3a_branch2b_zeropadding[0][0]
__________________________________________________________________________________________________
bn3a_branch2b (BatchNormalizati (None, 32, 32, 128)  512         res3a_branch2b[0][0]
__________________________________________________________________________________________________
scale3a_branch2b (Scale)        (None, 32, 32, 128)  256         bn3a_branch2b[0][0]
__________________________________________________________________________________________________
res3a_branch2b_relu (Activation (None, 32, 32, 128)  0           scale3a_branch2b[0][0]
__________________________________________________________________________________________________
res3a_branch2c (Conv2D)         (None, 32, 32, 512)  65536       res3a_branch2b_relu[0][0]
__________________________________________________________________________________________________
res3a_branch1 (Conv2D)          (None, 32, 32, 512)  131072      res2c_relu[0][0]
__________________________________________________________________________________________________
bn3a_branch2c (BatchNormalizati (None, 32, 32, 512)  2048        res3a_branch2c[0][0]
__________________________________________________________________________________________________
bn3a_branch1 (BatchNormalizatio (None, 32, 32, 512)  2048        res3a_branch1[0][0]
__________________________________________________________________________________________________
scale3a_branch2c (Scale)        (None, 32, 32, 512)  1024        bn3a_branch2c[0][0]
__________________________________________________________________________________________________
scale3a_branch1 (Scale)         (None, 32, 32, 512)  1024        bn3a_branch1[0][0]
__________________________________________________________________________________________________
res3a (Add)                     (None, 32, 32, 512)  0           scale3a_branch2c[0][0]
                                                                 scale3a_branch1[0][0]
__________________________________________________________________________________________________
res3a_relu (Activation)         (None, 32, 32, 512)  0           res3a[0][0]
__________________________________________________________________________________________________
res3b1_branch2a (Conv2D)        (None, 32, 32, 128)  65536       res3a_relu[0][0]
__________________________________________________________________________________________________
bn3b1_branch2a (BatchNormalizat (None, 32, 32, 128)  512         res3b1_branch2a[0][0]
__________________________________________________________________________________________________
scale3b1_branch2a (Scale)       (None, 32, 32, 128)  256         bn3b1_branch2a[0][0]
__________________________________________________________________________________________________
res3b1_branch2a_relu (Activatio (None, 32, 32, 128)  0           scale3b1_branch2a[0][0]
__________________________________________________________________________________________________
res3b1_branch2b_zeropadding (Ze (None, 34, 34, 128)  0           res3b1_branch2a_relu[0][0]
__________________________________________________________________________________________________
res3b1_branch2b (Conv2D)        (None, 32, 32, 128)  147456      res3b1_branch2b_zeropadding[0][0]
__________________________________________________________________________________________________
bn3b1_branch2b (BatchNormalizat (None, 32, 32, 128)  512         res3b1_branch2b[0][0]
__________________________________________________________________________________________________
scale3b1_branch2b (Scale)       (None, 32, 32, 128)  256         bn3b1_branch2b[0][0]
__________________________________________________________________________________________________
res3b1_branch2b_relu (Activatio (None, 32, 32, 128)  0           scale3b1_branch2b[0][0]
__________________________________________________________________________________________________
res3b1_branch2c (Conv2D)        (None, 32, 32, 512)  65536       res3b1_branch2b_relu[0][0]
__________________________________________________________________________________________________
bn3b1_branch2c (BatchNormalizat (None, 32, 32, 512)  2048        res3b1_branch2c[0][0]
__________________________________________________________________________________________________
scale3b1_branch2c (Scale)       (None, 32, 32, 512)  1024        bn3b1_branch2c[0][0]
__________________________________________________________________________________________________
res3b1 (Add)                    (None, 32, 32, 512)  0           scale3b1_branch2c[0][0]
                                                                 res3a_relu[0][0]
__________________________________________________________________________________________________
res3b1_relu (Activation)        (None, 32, 32, 512)  0           res3b1[0][0]
__________________________________________________________________________________________________
res3b2_branch2a (Conv2D)        (None, 32, 32, 128)  65536       res3b1_relu[0][0]
__________________________________________________________________________________________________
bn3b2_branch2a (BatchNormalizat (None, 32, 32, 128)  512         res3b2_branch2a[0][0]
__________________________________________________________________________________________________
scale3b2_branch2a (Scale)       (None, 32, 32, 128)  256         bn3b2_branch2a[0][0]
__________________________________________________________________________________________________
res3b2_branch2a_relu (Activatio (None, 32, 32, 128)  0           scale3b2_branch2a[0][0]
__________________________________________________________________________________________________
res3b2_branch2b_zeropadding (Ze (None, 34, 34, 128)  0           res3b2_branch2a_relu[0][0]
__________________________________________________________________________________________________
res3b2_branch2b (Conv2D)        (None, 32, 32, 128)  147456      res3b2_branch2b_zeropadding[0][0]
__________________________________________________________________________________________________
bn3b2_branch2b (BatchNormalizat (None, 32, 32, 128)  512         res3b2_branch2b[0][0]
__________________________________________________________________________________________________
scale3b2_branch2b (Scale)       (None, 32, 32, 128)  256         bn3b2_branch2b[0][0]
__________________________________________________________________________________________________
res3b2_branch2b_relu (Activatio (None, 32, 32, 128)  0           scale3b2_branch2b[0][0]
__________________________________________________________________________________________________
res3b2_branch2c (Conv2D)        (None, 32, 32, 512)  65536       res3b2_branch2b_relu[0][0]
__________________________________________________________________________________________________
bn3b2_branch2c (BatchNormalizat (None, 32, 32, 512)  2048        res3b2_branch2c[0][0]
__________________________________________________________________________________________________
scale3b2_branch2c (Scale)       (None, 32, 32, 512)  1024        bn3b2_branch2c[0][0]
__________________________________________________________________________________________________
res3b2 (Add)                    (None, 32, 32, 512)  0           scale3b2_branch2c[0][0]
                                                                 res3b1_relu[0][0]
__________________________________________________________________________________________________
res3b2_relu (Activation)        (None, 32, 32, 512)  0           res3b2[0][0]
__________________________________________________________________________________________________
res3b3_branch2a (Conv2D)        (None, 32, 32, 128)  65536       res3b2_relu[0][0]
__________________________________________________________________________________________________
bn3b3_branch2a (BatchNormalizat (None, 32, 32, 128)  512         res3b3_branch2a[0][0]
__________________________________________________________________________________________________
scale3b3_branch2a (Scale)       (None, 32, 32, 128)  256         bn3b3_branch2a[0][0]
__________________________________________________________________________________________________
res3b3_branch2a_relu (Activatio (None, 32, 32, 128)  0           scale3b3_branch2a[0][0]
__________________________________________________________________________________________________
res3b3_branch2b_zeropadding (Ze (None, 34, 34, 128)  0           res3b3_branch2a_relu[0][0]
__________________________________________________________________________________________________
res3b3_branch2b (Conv2D)        (None, 32, 32, 128)  147456      res3b3_branch2b_zeropadding[0][0]
__________________________________________________________________________________________________
bn3b3_branch2b (BatchNormalizat (None, 32, 32, 128)  512         res3b3_branch2b[0][0]
__________________________________________________________________________________________________
scale3b3_branch2b (Scale)       (None, 32, 32, 128)  256         bn3b3_branch2b[0][0]
__________________________________________________________________________________________________
res3b3_branch2b_relu (Activatio (None, 32, 32, 128)  0           scale3b3_branch2b[0][0]
__________________________________________________________________________________________________
res3b3_branch2c (Conv2D)        (None, 32, 32, 512)  65536       res3b3_branch2b_relu[0][0]
__________________________________________________________________________________________________
bn3b3_branch2c (BatchNormalizat (None, 32, 32, 512)  2048        res3b3_branch2c[0][0]
__________________________________________________________________________________________________
scale3b3_branch2c (Scale)       (None, 32, 32, 512)  1024        bn3b3_branch2c[0][0]
__________________________________________________________________________________________________
res3b3 (Add)                    (None, 32, 32, 512)  0           scale3b3_branch2c[0][0]
                                                                 res3b2_relu[0][0]
__________________________________________________________________________________________________
res3b3_relu (Activation)        (None, 32, 32, 512)  0           res3b3[0][0]
__________________________________________________________________________________________________
res4a_branch2a (Conv2D)         (None, 16, 16, 256)  131072      res3b3_relu[0][0]
__________________________________________________________________________________________________
bn4a_branch2a (BatchNormalizati (None, 16, 16, 256)  1024        res4a_branch2a[0][0]
__________________________________________________________________________________________________
scale4a_branch2a (Scale)        (None, 16, 16, 256)  512         bn4a_branch2a[0][0]
__________________________________________________________________________________________________
res4a_branch2a_relu (Activation (None, 16, 16, 256)  0           scale4a_branch2a[0][0]
__________________________________________________________________________________________________
res4a_branch2b_zeropadding (Zer (None, 18, 18, 256)  0           res4a_branch2a_relu[0][0]
__________________________________________________________________________________________________
res4a_branch2b (Conv2D)         (None, 16, 16, 256)  589824      res4a_branch2b_zeropadding[0][0]
__________________________________________________________________________________________________
bn4a_branch2b (BatchNormalizati (None, 16, 16, 256)  1024        res4a_branch2b[0][0]
__________________________________________________________________________________________________
scale4a_branch2b (Scale)        (None, 16, 16, 256)  512         bn4a_branch2b[0][0]
__________________________________________________________________________________________________
res4a_branch2b_relu (Activation (None, 16, 16, 256)  0           scale4a_branch2b[0][0]
__________________________________________________________________________________________________
res4a_branch2c (Conv2D)         (None, 16, 16, 1024) 262144      res4a_branch2b_relu[0][0]
__________________________________________________________________________________________________
res4a_branch1 (Conv2D)          (None, 16, 16, 1024) 524288      res3b3_relu[0][0]
__________________________________________________________________________________________________
bn4a_branch2c (BatchNormalizati (None, 16, 16, 1024) 4096        res4a_branch2c[0][0]
__________________________________________________________________________________________________
bn4a_branch1 (BatchNormalizatio (None, 16, 16, 1024) 4096        res4a_branch1[0][0]
__________________________________________________________________________________________________
scale4a_branch2c (Scale)        (None, 16, 16, 1024) 2048        bn4a_branch2c[0][0]
__________________________________________________________________________________________________
scale4a_branch1 (Scale)         (None, 16, 16, 1024) 2048        bn4a_branch1[0][0]
__________________________________________________________________________________________________
res4a (Add)                     (None, 16, 16, 1024) 0           scale4a_branch2c[0][0]
                                                                 scale4a_branch1[0][0]
__________________________________________________________________________________________________
res4a_relu (Activation)         (None, 16, 16, 1024) 0           res4a[0][0]
__________________________________________________________________________________________________
res4b1_branch2a (Conv2D)        (None, 16, 16, 256)  262144      res4a_relu[0][0]
__________________________________________________________________________________________________
bn4b1_branch2a (BatchNormalizat (None, 16, 16, 256)  1024        res4b1_branch2a[0][0]
__________________________________________________________________________________________________
scale4b1_branch2a (Scale)       (None, 16, 16, 256)  512         bn4b1_branch2a[0][0]
__________________________________________________________________________________________________
res4b1_branch2a_relu (Activatio (None, 16, 16, 256)  0           scale4b1_branch2a[0][0]
__________________________________________________________________________________________________
res4b1_branch2b_zeropadding (Ze (None, 18, 18, 256)  0           res4b1_branch2a_relu[0][0]
__________________________________________________________________________________________________
res4b1_branch2b (Conv2D)        (None, 16, 16, 256)  589824      res4b1_branch2b_zeropadding[0][0]
__________________________________________________________________________________________________
bn4b1_branch2b (BatchNormalizat (None, 16, 16, 256)  1024        res4b1_branch2b[0][0]
__________________________________________________________________________________________________
scale4b1_branch2b (Scale)       (None, 16, 16, 256)  512         bn4b1_branch2b[0][0]
__________________________________________________________________________________________________
res4b1_branch2b_relu (Activatio (None, 16, 16, 256)  0           scale4b1_branch2b[0][0]
__________________________________________________________________________________________________
res4b1_branch2c (Conv2D)        (None, 16, 16, 1024) 262144      res4b1_branch2b_relu[0][0]
__________________________________________________________________________________________________
bn4b1_branch2c (BatchNormalizat (None, 16, 16, 1024) 4096        res4b1_branch2c[0][0]
__________________________________________________________________________________________________
scale4b1_branch2c (Scale)       (None, 16, 16, 1024) 2048        bn4b1_branch2c[0][0]
__________________________________________________________________________________________________
res4b1 (Add)                    (None, 16, 16, 1024) 0           scale4b1_branch2c[0][0]
                                                                 res4a_relu[0][0]
__________________________________________________________________________________________________
res4b1_relu (Activation)        (None, 16, 16, 1024) 0           res4b1[0][0]
__________________________________________________________________________________________________
res4b2_branch2a (Conv2D)        (None, 16, 16, 256)  262144      res4b1_relu[0][0]
__________________________________________________________________________________________________
bn4b2_branch2a (BatchNormalizat (None, 16, 16, 256)  1024        res4b2_branch2a[0][0]
__________________________________________________________________________________________________
scale4b2_branch2a (Scale)       (None, 16, 16, 256)  512         bn4b2_branch2a[0][0]
__________________________________________________________________________________________________
res4b2_branch2a_relu (Activatio (None, 16, 16, 256)  0           scale4b2_branch2a[0][0]
__________________________________________________________________________________________________
res4b2_branch2b_zeropadding (Ze (None, 18, 18, 256)  0           res4b2_branch2a_relu[0][0]
__________________________________________________________________________________________________
res4b2_branch2b (Conv2D)        (None, 16, 16, 256)  589824      res4b2_branch2b_zeropadding[0][0]
__________________________________________________________________________________________________
bn4b2_branch2b (BatchNormalizat (None, 16, 16, 256)  1024        res4b2_branch2b[0][0]
__________________________________________________________________________________________________
scale4b2_branch2b (Scale)       (None, 16, 16, 256)  512         bn4b2_branch2b[0][0]
__________________________________________________________________________________________________
res4b2_branch2b_relu (Activatio (None, 16, 16, 256)  0           scale4b2_branch2b[0][0]
__________________________________________________________________________________________________
res4b2_branch2c (Conv2D)        (None, 16, 16, 1024) 262144      res4b2_branch2b_relu[0][0]
__________________________________________________________________________________________________
bn4b2_branch2c (BatchNormalizat (None, 16, 16, 1024) 4096        res4b2_branch2c[0][0]
__________________________________________________________________________________________________
scale4b2_branch2c (Scale)       (None, 16, 16, 1024) 2048        bn4b2_branch2c[0][0]
__________________________________________________________________________________________________
res4b2 (Add)                    (None, 16, 16, 1024) 0           scale4b2_branch2c[0][0]
                                                                 res4b1_relu[0][0]
__________________________________________________________________________________________________
res4b2_relu (Activation)        (None, 16, 16, 1024) 0           res4b2[0][0]
__________________________________________________________________________________________________
res4b3_branch2a (Conv2D)        (None, 16, 16, 256)  262144      res4b2_relu[0][0]
__________________________________________________________________________________________________
bn4b3_branch2a (BatchNormalizat (None, 16, 16, 256)  1024        res4b3_branch2a[0][0]
__________________________________________________________________________________________________
scale4b3_branch2a (Scale)       (None, 16, 16, 256)  512         bn4b3_branch2a[0][0]
__________________________________________________________________________________________________
res4b3_branch2a_relu (Activatio (None, 16, 16, 256)  0           scale4b3_branch2a[0][0]
__________________________________________________________________________________________________
res4b3_branch2b_zeropadding (Ze (None, 18, 18, 256)  0           res4b3_branch2a_relu[0][0]
__________________________________________________________________________________________________
res4b3_branch2b (Conv2D)        (None, 16, 16, 256)  589824      res4b3_branch2b_zeropadding[0][0]
__________________________________________________________________________________________________
bn4b3_branch2b (BatchNormalizat (None, 16, 16, 256)  1024        res4b3_branch2b[0][0]
__________________________________________________________________________________________________
scale4b3_branch2b (Scale)       (None, 16, 16, 256)  512         bn4b3_branch2b[0][0]
__________________________________________________________________________________________________
res4b3_branch2b_relu (Activatio (None, 16, 16, 256)  0           scale4b3_branch2b[0][0]
__________________________________________________________________________________________________
res4b3_branch2c (Conv2D)        (None, 16, 16, 1024) 262144      res4b3_branch2b_relu[0][0]
__________________________________________________________________________________________________
bn4b3_branch2c (BatchNormalizat (None, 16, 16, 1024) 4096        res4b3_branch2c[0][0]
__________________________________________________________________________________________________
scale4b3_branch2c (Scale)       (None, 16, 16, 1024) 2048        bn4b3_branch2c[0][0]
__________________________________________________________________________________________________
res4b3 (Add)                    (None, 16, 16, 1024) 0           scale4b3_branch2c[0][0]
                                                                 res4b2_relu[0][0]
__________________________________________________________________________________________________
res4b3_relu (Activation)        (None, 16, 16, 1024) 0           res4b3[0][0]
__________________________________________________________________________________________________
res4b4_branch2a (Conv2D)        (None, 16, 16, 256)  262144      res4b3_relu[0][0]
__________________________________________________________________________________________________
bn4b4_branch2a (BatchNormalizat (None, 16, 16, 256)  1024        res4b4_branch2a[0][0]
__________________________________________________________________________________________________
scale4b4_branch2a (Scale)       (None, 16, 16, 256)  512         bn4b4_branch2a[0][0]
__________________________________________________________________________________________________
res4b4_branch2a_relu (Activatio (None, 16, 16, 256)  0           scale4b4_branch2a[0][0]
__________________________________________________________________________________________________
res4b4_branch2b_zeropadding (Ze (None, 18, 18, 256)  0           res4b4_branch2a_relu[0][0]
__________________________________________________________________________________________________
res4b4_branch2b (Conv2D)        (None, 16, 16, 256)  589824      res4b4_branch2b_zeropadding[0][0]
__________________________________________________________________________________________________
bn4b4_branch2b (BatchNormalizat (None, 16, 16, 256)  1024        res4b4_branch2b[0][0]
__________________________________________________________________________________________________
scale4b4_branch2b (Scale)       (None, 16, 16, 256)  512         bn4b4_branch2b[0][0]
__________________________________________________________________________________________________
res4b4_branch2b_relu (Activatio (None, 16, 16, 256)  0           scale4b4_branch2b[0][0]
__________________________________________________________________________________________________
res4b4_branch2c (Conv2D)        (None, 16, 16, 1024) 262144      res4b4_branch2b_relu[0][0]
__________________________________________________________________________________________________
bn4b4_branch2c (BatchNormalizat (None, 16, 16, 1024) 4096        res4b4_branch2c[0][0]
__________________________________________________________________________________________________
scale4b4_branch2c (Scale)       (None, 16, 16, 1024) 2048        bn4b4_branch2c[0][0]
__________________________________________________________________________________________________
res4b4 (Add)                    (None, 16, 16, 1024) 0           scale4b4_branch2c[0][0]
                                                                 res4b3_relu[0][0]
__________________________________________________________________________________________________
res4b4_relu (Activation)        (None, 16, 16, 1024) 0           res4b4[0][0]
__________________________________________________________________________________________________
res4b5_branch2a (Conv2D)        (None, 16, 16, 256)  262144      res4b4_relu[0][0]
__________________________________________________________________________________________________
bn4b5_branch2a (BatchNormalizat (None, 16, 16, 256)  1024        res4b5_branch2a[0][0]
__________________________________________________________________________________________________
scale4b5_branch2a (Scale)       (None, 16, 16, 256)  512         bn4b5_branch2a[0][0]
__________________________________________________________________________________________________
res4b5_branch2a_relu (Activatio (None, 16, 16, 256)  0           scale4b5_branch2a[0][0]
__________________________________________________________________________________________________
res4b5_branch2b_zeropadding (Ze (None, 18, 18, 256)  0           res4b5_branch2a_relu[0][0]
__________________________________________________________________________________________________
res4b5_branch2b (Conv2D)        (None, 16, 16, 256)  589824      res4b5_branch2b_zeropadding[0][0]
__________________________________________________________________________________________________
bn4b5_branch2b (BatchNormalizat (None, 16, 16, 256)  1024        res4b5_branch2b[0][0]
__________________________________________________________________________________________________
scale4b5_branch2b (Scale)       (None, 16, 16, 256)  512         bn4b5_branch2b[0][0]
__________________________________________________________________________________________________
res4b5_branch2b_relu (Activatio (None, 16, 16, 256)  0           scale4b5_branch2b[0][0]
__________________________________________________________________________________________________
res4b5_branch2c (Conv2D)        (None, 16, 16, 1024) 262144      res4b5_branch2b_relu[0][0]
__________________________________________________________________________________________________
bn4b5_branch2c (BatchNormalizat (None, 16, 16, 1024) 4096        res4b5_branch2c[0][0]
__________________________________________________________________________________________________
scale4b5_branch2c (Scale)       (None, 16, 16, 1024) 2048        bn4b5_branch2c[0][0]
__________________________________________________________________________________________________
res4b5 (Add)                    (None, 16, 16, 1024) 0           scale4b5_branch2c[0][0]
                                                                 res4b4_relu[0][0]
__________________________________________________________________________________________________
res4b5_relu (Activation)        (None, 16, 16, 1024) 0           res4b5[0][0]
__________________________________________________________________________________________________
res4b6_branch2a (Conv2D)        (None, 16, 16, 256)  262144      res4b5_relu[0][0]
__________________________________________________________________________________________________
bn4b6_branch2a (BatchNormalizat (None, 16, 16, 256)  1024        res4b6_branch2a[0][0]
__________________________________________________________________________________________________
scale4b6_branch2a (Scale)       (None, 16, 16, 256)  512         bn4b6_branch2a[0][0]
__________________________________________________________________________________________________
res4b6_branch2a_relu (Activatio (None, 16, 16, 256)  0           scale4b6_branch2a[0][0]
__________________________________________________________________________________________________
res4b6_branch2b_zeropadding (Ze (None, 18, 18, 256)  0           res4b6_branch2a_relu[0][0]
__________________________________________________________________________________________________
res4b6_branch2b (Conv2D)        (None, 16, 16, 256)  589824      res4b6_branch2b_zeropadding[0][0]
__________________________________________________________________________________________________
bn4b6_branch2b (BatchNormalizat (None, 16, 16, 256)  1024        res4b6_branch2b[0][0]
__________________________________________________________________________________________________
scale4b6_branch2b (Scale)       (None, 16, 16, 256)  512         bn4b6_branch2b[0][0]
__________________________________________________________________________________________________
res4b6_branch2b_relu (Activatio (None, 16, 16, 256)  0           scale4b6_branch2b[0][0]
__________________________________________________________________________________________________
res4b6_branch2c (Conv2D)        (None, 16, 16, 1024) 262144      res4b6_branch2b_relu[0][0]
__________________________________________________________________________________________________
bn4b6_branch2c (BatchNormalizat (None, 16, 16, 1024) 4096        res4b6_branch2c[0][0]
__________________________________________________________________________________________________
scale4b6_branch2c (Scale)       (None, 16, 16, 1024) 2048        bn4b6_branch2c[0][0]
__________________________________________________________________________________________________
res4b6 (Add)                    (None, 16, 16, 1024) 0           scale4b6_branch2c[0][0]
                                                                 res4b5_relu[0][0]
__________________________________________________________________________________________________
res4b6_relu (Activation)        (None, 16, 16, 1024) 0           res4b6[0][0]
__________________________________________________________________________________________________
res4b7_branch2a (Conv2D)        (None, 16, 16, 256)  262144      res4b6_relu[0][0]
__________________________________________________________________________________________________
bn4b7_branch2a (BatchNormalizat (None, 16, 16, 256)  1024        res4b7_branch2a[0][0]
__________________________________________________________________________________________________
scale4b7_branch2a (Scale)       (None, 16, 16, 256)  512         bn4b7_branch2a[0][0]
__________________________________________________________________________________________________
res4b7_branch2a_relu (Activatio (None, 16, 16, 256)  0           scale4b7_branch2a[0][0]
__________________________________________________________________________________________________
res4b7_branch2b_zeropadding (Ze (None, 18, 18, 256)  0           res4b7_branch2a_relu[0][0]
__________________________________________________________________________________________________
res4b7_branch2b (Conv2D)        (None, 16, 16, 256)  589824      res4b7_branch2b_zeropadding[0][0]
__________________________________________________________________________________________________
bn4b7_branch2b (BatchNormalizat (None, 16, 16, 256)  1024        res4b7_branch2b[0][0]
__________________________________________________________________________________________________
scale4b7_branch2b (Scale)       (None, 16, 16, 256)  512         bn4b7_branch2b[0][0]
__________________________________________________________________________________________________
res4b7_branch2b_relu (Activatio (None, 16, 16, 256)  0           scale4b7_branch2b[0][0]
__________________________________________________________________________________________________
res4b7_branch2c (Conv2D)        (None, 16, 16, 1024) 262144      res4b7_branch2b_relu[0][0]
__________________________________________________________________________________________________
bn4b7_branch2c (BatchNormalizat (None, 16, 16, 1024) 4096        res4b7_branch2c[0][0]
__________________________________________________________________________________________________
scale4b7_branch2c (Scale)       (None, 16, 16, 1024) 2048        bn4b7_branch2c[0][0]
__________________________________________________________________________________________________
res4b7 (Add)                    (None, 16, 16, 1024) 0           scale4b7_branch2c[0][0]
                                                                 res4b6_relu[0][0]
__________________________________________________________________________________________________
res4b7_relu (Activation)        (None, 16, 16, 1024) 0           res4b7[0][0]
__________________________________________________________________________________________________
res4b8_branch2a (Conv2D)        (None, 16, 16, 256)  262144      res4b7_relu[0][0]
__________________________________________________________________________________________________
bn4b8_branch2a (BatchNormalizat (None, 16, 16, 256)  1024        res4b8_branch2a[0][0]
__________________________________________________________________________________________________
scale4b8_branch2a (Scale)       (None, 16, 16, 256)  512         bn4b8_branch2a[0][0]
__________________________________________________________________________________________________
res4b8_branch2a_relu (Activatio (None, 16, 16, 256)  0           scale4b8_branch2a[0][0]
__________________________________________________________________________________________________
res4b8_branch2b_zeropadding (Ze (None, 18, 18, 256)  0           res4b8_branch2a_relu[0][0]
__________________________________________________________________________________________________
res4b8_branch2b (Conv2D)        (None, 16, 16, 256)  589824      res4b8_branch2b_zeropadding[0][0]
__________________________________________________________________________________________________
bn4b8_branch2b (BatchNormalizat (None, 16, 16, 256)  1024        res4b8_branch2b[0][0]
__________________________________________________________________________________________________
scale4b8_branch2b (Scale)       (None, 16, 16, 256)  512         bn4b8_branch2b[0][0]
__________________________________________________________________________________________________
res4b8_branch2b_relu (Activatio (None, 16, 16, 256)  0           scale4b8_branch2b[0][0]
__________________________________________________________________________________________________
res4b8_branch2c (Conv2D)        (None, 16, 16, 1024) 262144      res4b8_branch2b_relu[0][0]
__________________________________________________________________________________________________
bn4b8_branch2c (BatchNormalizat (None, 16, 16, 1024) 4096        res4b8_branch2c[0][0]
__________________________________________________________________________________________________
scale4b8_branch2c (Scale)       (None, 16, 16, 1024) 2048        bn4b8_branch2c[0][0]
__________________________________________________________________________________________________
res4b8 (Add)                    (None, 16, 16, 1024) 0           scale4b8_branch2c[0][0]
                                                                 res4b7_relu[0][0]
__________________________________________________________________________________________________
res4b8_relu (Activation)        (None, 16, 16, 1024) 0           res4b8[0][0]
__________________________________________________________________________________________________
res4b9_branch2a (Conv2D)        (None, 16, 16, 256)  262144      res4b8_relu[0][0]
__________________________________________________________________________________________________
bn4b9_branch2a (BatchNormalizat (None, 16, 16, 256)  1024        res4b9_branch2a[0][0]
__________________________________________________________________________________________________
scale4b9_branch2a (Scale)       (None, 16, 16, 256)  512         bn4b9_branch2a[0][0]
__________________________________________________________________________________________________
res4b9_branch2a_relu (Activatio (None, 16, 16, 256)  0           scale4b9_branch2a[0][0]
__________________________________________________________________________________________________
res4b9_branch2b_zeropadding (Ze (None, 18, 18, 256)  0           res4b9_branch2a_relu[0][0]
__________________________________________________________________________________________________
res4b9_branch2b (Conv2D)        (None, 16, 16, 256)  589824      res4b9_branch2b_zeropadding[0][0]
__________________________________________________________________________________________________
bn4b9_branch2b (BatchNormalizat (None, 16, 16, 256)  1024        res4b9_branch2b[0][0]
__________________________________________________________________________________________________
scale4b9_branch2b (Scale)       (None, 16, 16, 256)  512         bn4b9_branch2b[0][0]
__________________________________________________________________________________________________
res4b9_branch2b_relu (Activatio (None, 16, 16, 256)  0           scale4b9_branch2b[0][0]
__________________________________________________________________________________________________
res4b9_branch2c (Conv2D)        (None, 16, 16, 1024) 262144      res4b9_branch2b_relu[0][0]
__________________________________________________________________________________________________
bn4b9_branch2c (BatchNormalizat (None, 16, 16, 1024) 4096        res4b9_branch2c[0][0]
__________________________________________________________________________________________________
scale4b9_branch2c (Scale)       (None, 16, 16, 1024) 2048        bn4b9_branch2c[0][0]
__________________________________________________________________________________________________
res4b9 (Add)                    (None, 16, 16, 1024) 0           scale4b9_branch2c[0][0]
                                                                 res4b8_relu[0][0]
__________________________________________________________________________________________________
res4b9_relu (Activation)        (None, 16, 16, 1024) 0           res4b9[0][0]
__________________________________________________________________________________________________
res4b10_branch2a (Conv2D)       (None, 16, 16, 256)  262144      res4b9_relu[0][0]
__________________________________________________________________________________________________
bn4b10_branch2a (BatchNormaliza (None, 16, 16, 256)  1024        res4b10_branch2a[0][0]
__________________________________________________________________________________________________
scale4b10_branch2a (Scale)      (None, 16, 16, 256)  512         bn4b10_branch2a[0][0]
__________________________________________________________________________________________________
res4b10_branch2a_relu (Activati (None, 16, 16, 256)  0           scale4b10_branch2a[0][0]
__________________________________________________________________________________________________
res4b10_branch2b_zeropadding (Z (None, 18, 18, 256)  0           res4b10_branch2a_relu[0][0]
__________________________________________________________________________________________________
res4b10_branch2b (Conv2D)       (None, 16, 16, 256)  589824      res4b10_branch2b_zeropadding[0][0
__________________________________________________________________________________________________
bn4b10_branch2b (BatchNormaliza (None, 16, 16, 256)  1024        res4b10_branch2b[0][0]
__________________________________________________________________________________________________
scale4b10_branch2b (Scale)      (None, 16, 16, 256)  512         bn4b10_branch2b[0][0]
__________________________________________________________________________________________________
res4b10_branch2b_relu (Activati (None, 16, 16, 256)  0           scale4b10_branch2b[0][0]
__________________________________________________________________________________________________
res4b10_branch2c (Conv2D)       (None, 16, 16, 1024) 262144      res4b10_branch2b_relu[0][0]
__________________________________________________________________________________________________
bn4b10_branch2c (BatchNormaliza (None, 16, 16, 1024) 4096        res4b10_branch2c[0][0]
__________________________________________________________________________________________________
scale4b10_branch2c (Scale)      (None, 16, 16, 1024) 2048        bn4b10_branch2c[0][0]
__________________________________________________________________________________________________
res4b10 (Add)                   (None, 16, 16, 1024) 0           scale4b10_branch2c[0][0]
                                                                 res4b9_relu[0][0]
__________________________________________________________________________________________________
res4b10_relu (Activation)       (None, 16, 16, 1024) 0           res4b10[0][0]
__________________________________________________________________________________________________
res4b11_branch2a (Conv2D)       (None, 16, 16, 256)  262144      res4b10_relu[0][0]
__________________________________________________________________________________________________
bn4b11_branch2a (BatchNormaliza (None, 16, 16, 256)  1024        res4b11_branch2a[0][0]
__________________________________________________________________________________________________
scale4b11_branch2a (Scale)      (None, 16, 16, 256)  512         bn4b11_branch2a[0][0]
__________________________________________________________________________________________________
res4b11_branch2a_relu (Activati (None, 16, 16, 256)  0           scale4b11_branch2a[0][0]
__________________________________________________________________________________________________
res4b11_branch2b_zeropadding (Z (None, 18, 18, 256)  0           res4b11_branch2a_relu[0][0]
__________________________________________________________________________________________________
res4b11_branch2b (Conv2D)       (None, 16, 16, 256)  589824      res4b11_branch2b_zeropadding[0][0
__________________________________________________________________________________________________
bn4b11_branch2b (BatchNormaliza (None, 16, 16, 256)  1024        res4b11_branch2b[0][0]
__________________________________________________________________________________________________
scale4b11_branch2b (Scale)      (None, 16, 16, 256)  512         bn4b11_branch2b[0][0]
__________________________________________________________________________________________________
res4b11_branch2b_relu (Activati (None, 16, 16, 256)  0           scale4b11_branch2b[0][0]
__________________________________________________________________________________________________
res4b11_branch2c (Conv2D)       (None, 16, 16, 1024) 262144      res4b11_branch2b_relu[0][0]
__________________________________________________________________________________________________
bn4b11_branch2c (BatchNormaliza (None, 16, 16, 1024) 4096        res4b11_branch2c[0][0]
__________________________________________________________________________________________________
scale4b11_branch2c (Scale)      (None, 16, 16, 1024) 2048        bn4b11_branch2c[0][0]
__________________________________________________________________________________________________
res4b11 (Add)                   (None, 16, 16, 1024) 0           scale4b11_branch2c[0][0]
                                                                 res4b10_relu[0][0]
__________________________________________________________________________________________________
res4b11_relu (Activation)       (None, 16, 16, 1024) 0           res4b11[0][0]
__________________________________________________________________________________________________
res4b12_branch2a (Conv2D)       (None, 16, 16, 256)  262144      res4b11_relu[0][0]
__________________________________________________________________________________________________
bn4b12_branch2a (BatchNormaliza (None, 16, 16, 256)  1024        res4b12_branch2a[0][0]
__________________________________________________________________________________________________
scale4b12_branch2a (Scale)      (None, 16, 16, 256)  512         bn4b12_branch2a[0][0]
__________________________________________________________________________________________________
res4b12_branch2a_relu (Activati (None, 16, 16, 256)  0           scale4b12_branch2a[0][0]
__________________________________________________________________________________________________
res4b12_branch2b_zeropadding (Z (None, 18, 18, 256)  0           res4b12_branch2a_relu[0][0]
__________________________________________________________________________________________________
res4b12_branch2b (Conv2D)       (None, 16, 16, 256)  589824      res4b12_branch2b_zeropadding[0][0
__________________________________________________________________________________________________
bn4b12_branch2b (BatchNormaliza (None, 16, 16, 256)  1024        res4b12_branch2b[0][0]
__________________________________________________________________________________________________
scale4b12_branch2b (Scale)      (None, 16, 16, 256)  512         bn4b12_branch2b[0][0]
__________________________________________________________________________________________________
res4b12_branch2b_relu (Activati (None, 16, 16, 256)  0           scale4b12_branch2b[0][0]
__________________________________________________________________________________________________
res4b12_branch2c (Conv2D)       (None, 16, 16, 1024) 262144      res4b12_branch2b_relu[0][0]
__________________________________________________________________________________________________
bn4b12_branch2c (BatchNormaliza (None, 16, 16, 1024) 4096        res4b12_branch2c[0][0]
__________________________________________________________________________________________________
scale4b12_branch2c (Scale)      (None, 16, 16, 1024) 2048        bn4b12_branch2c[0][0]
__________________________________________________________________________________________________
res4b12 (Add)                   (None, 16, 16, 1024) 0           scale4b12_branch2c[0][0]
                                                                 res4b11_relu[0][0]
__________________________________________________________________________________________________
res4b12_relu (Activation)       (None, 16, 16, 1024) 0           res4b12[0][0]
__________________________________________________________________________________________________
res4b13_branch2a (Conv2D)       (None, 16, 16, 256)  262144      res4b12_relu[0][0]
__________________________________________________________________________________________________
bn4b13_branch2a (BatchNormaliza (None, 16, 16, 256)  1024        res4b13_branch2a[0][0]
__________________________________________________________________________________________________
scale4b13_branch2a (Scale)      (None, 16, 16, 256)  512         bn4b13_branch2a[0][0]
__________________________________________________________________________________________________
res4b13_branch2a_relu (Activati (None, 16, 16, 256)  0           scale4b13_branch2a[0][0]
__________________________________________________________________________________________________
res4b13_branch2b_zeropadding (Z (None, 18, 18, 256)  0           res4b13_branch2a_relu[0][0]
__________________________________________________________________________________________________
res4b13_branch2b (Conv2D)       (None, 16, 16, 256)  589824      res4b13_branch2b_zeropadding[0][0
__________________________________________________________________________________________________
bn4b13_branch2b (BatchNormaliza (None, 16, 16, 256)  1024        res4b13_branch2b[0][0]
__________________________________________________________________________________________________
scale4b13_branch2b (Scale)      (None, 16, 16, 256)  512         bn4b13_branch2b[0][0]
__________________________________________________________________________________________________
res4b13_branch2b_relu (Activati (None, 16, 16, 256)  0           scale4b13_branch2b[0][0]
__________________________________________________________________________________________________
res4b13_branch2c (Conv2D)       (None, 16, 16, 1024) 262144      res4b13_branch2b_relu[0][0]
__________________________________________________________________________________________________
bn4b13_branch2c (BatchNormaliza (None, 16, 16, 1024) 4096        res4b13_branch2c[0][0]
__________________________________________________________________________________________________
scale4b13_branch2c (Scale)      (None, 16, 16, 1024) 2048        bn4b13_branch2c[0][0]
__________________________________________________________________________________________________
res4b13 (Add)                   (None, 16, 16, 1024) 0           scale4b13_branch2c[0][0]
                                                                 res4b12_relu[0][0]
__________________________________________________________________________________________________
res4b13_relu (Activation)       (None, 16, 16, 1024) 0           res4b13[0][0]
__________________________________________________________________________________________________
res4b14_branch2a (Conv2D)       (None, 16, 16, 256)  262144      res4b13_relu[0][0]
__________________________________________________________________________________________________
bn4b14_branch2a (BatchNormaliza (None, 16, 16, 256)  1024        res4b14_branch2a[0][0]
__________________________________________________________________________________________________
scale4b14_branch2a (Scale)      (None, 16, 16, 256)  512         bn4b14_branch2a[0][0]
__________________________________________________________________________________________________
res4b14_branch2a_relu (Activati (None, 16, 16, 256)  0           scale4b14_branch2a[0][0]
__________________________________________________________________________________________________
res4b14_branch2b_zeropadding (Z (None, 18, 18, 256)  0           res4b14_branch2a_relu[0][0]
__________________________________________________________________________________________________
res4b14_branch2b (Conv2D)       (None, 16, 16, 256)  589824      res4b14_branch2b_zeropadding[0][0
__________________________________________________________________________________________________
bn4b14_branch2b (BatchNormaliza (None, 16, 16, 256)  1024        res4b14_branch2b[0][0]
__________________________________________________________________________________________________
scale4b14_branch2b (Scale)      (None, 16, 16, 256)  512         bn4b14_branch2b[0][0]
__________________________________________________________________________________________________
res4b14_branch2b_relu (Activati (None, 16, 16, 256)  0           scale4b14_branch2b[0][0]
__________________________________________________________________________________________________
res4b14_branch2c (Conv2D)       (None, 16, 16, 1024) 262144      res4b14_branch2b_relu[0][0]
__________________________________________________________________________________________________
bn4b14_branch2c (BatchNormaliza (None, 16, 16, 1024) 4096        res4b14_branch2c[0][0]
__________________________________________________________________________________________________
scale4b14_branch2c (Scale)      (None, 16, 16, 1024) 2048        bn4b14_branch2c[0][0]
__________________________________________________________________________________________________
res4b14 (Add)                   (None, 16, 16, 1024) 0           scale4b14_branch2c[0][0]
                                                                 res4b13_relu[0][0]
__________________________________________________________________________________________________
res4b14_relu (Activation)       (None, 16, 16, 1024) 0           res4b14[0][0]
__________________________________________________________________________________________________
res4b15_branch2a (Conv2D)       (None, 16, 16, 256)  262144      res4b14_relu[0][0]
__________________________________________________________________________________________________
bn4b15_branch2a (BatchNormaliza (None, 16, 16, 256)  1024        res4b15_branch2a[0][0]
__________________________________________________________________________________________________
scale4b15_branch2a (Scale)      (None, 16, 16, 256)  512         bn4b15_branch2a[0][0]
__________________________________________________________________________________________________
res4b15_branch2a_relu (Activati (None, 16, 16, 256)  0           scale4b15_branch2a[0][0]
__________________________________________________________________________________________________
res4b15_branch2b_zeropadding (Z (None, 18, 18, 256)  0           res4b15_branch2a_relu[0][0]
__________________________________________________________________________________________________
res4b15_branch2b (Conv2D)       (None, 16, 16, 256)  589824      res4b15_branch2b_zeropadding[0][0
__________________________________________________________________________________________________
bn4b15_branch2b (BatchNormaliza (None, 16, 16, 256)  1024        res4b15_branch2b[0][0]
__________________________________________________________________________________________________
scale4b15_branch2b (Scale)      (None, 16, 16, 256)  512         bn4b15_branch2b[0][0]
__________________________________________________________________________________________________
res4b15_branch2b_relu (Activati (None, 16, 16, 256)  0           scale4b15_branch2b[0][0]
__________________________________________________________________________________________________
res4b15_branch2c (Conv2D)       (None, 16, 16, 1024) 262144      res4b15_branch2b_relu[0][0]
__________________________________________________________________________________________________
bn4b15_branch2c (BatchNormaliza (None, 16, 16, 1024) 4096        res4b15_branch2c[0][0]
__________________________________________________________________________________________________
scale4b15_branch2c (Scale)      (None, 16, 16, 1024) 2048        bn4b15_branch2c[0][0]
__________________________________________________________________________________________________
res4b15 (Add)                   (None, 16, 16, 1024) 0           scale4b15_branch2c[0][0]
                                                                 res4b14_relu[0][0]
__________________________________________________________________________________________________
res4b15_relu (Activation)       (None, 16, 16, 1024) 0           res4b15[0][0]
__________________________________________________________________________________________________
res4b16_branch2a (Conv2D)       (None, 16, 16, 256)  262144      res4b15_relu[0][0]
__________________________________________________________________________________________________
bn4b16_branch2a (BatchNormaliza (None, 16, 16, 256)  1024        res4b16_branch2a[0][0]
__________________________________________________________________________________________________
scale4b16_branch2a (Scale)      (None, 16, 16, 256)  512         bn4b16_branch2a[0][0]
__________________________________________________________________________________________________
res4b16_branch2a_relu (Activati (None, 16, 16, 256)  0           scale4b16_branch2a[0][0]
__________________________________________________________________________________________________
res4b16_branch2b_zeropadding (Z (None, 18, 18, 256)  0           res4b16_branch2a_relu[0][0]
__________________________________________________________________________________________________
res4b16_branch2b (Conv2D)       (None, 16, 16, 256)  589824      res4b16_branch2b_zeropadding[0][0
__________________________________________________________________________________________________
bn4b16_branch2b (BatchNormaliza (None, 16, 16, 256)  1024        res4b16_branch2b[0][0]
__________________________________________________________________________________________________
scale4b16_branch2b (Scale)      (None, 16, 16, 256)  512         bn4b16_branch2b[0][0]
__________________________________________________________________________________________________
res4b16_branch2b_relu (Activati (None, 16, 16, 256)  0           scale4b16_branch2b[0][0]
__________________________________________________________________________________________________
res4b16_branch2c (Conv2D)       (None, 16, 16, 1024) 262144      res4b16_branch2b_relu[0][0]
__________________________________________________________________________________________________
bn4b16_branch2c (BatchNormaliza (None, 16, 16, 1024) 4096        res4b16_branch2c[0][0]
__________________________________________________________________________________________________
scale4b16_branch2c (Scale)      (None, 16, 16, 1024) 2048        bn4b16_branch2c[0][0]
__________________________________________________________________________________________________
res4b16 (Add)                   (None, 16, 16, 1024) 0           scale4b16_branch2c[0][0]
                                                                 res4b15_relu[0][0]
__________________________________________________________________________________________________
res4b16_relu (Activation)       (None, 16, 16, 1024) 0           res4b16[0][0]
__________________________________________________________________________________________________
res4b17_branch2a (Conv2D)       (None, 16, 16, 256)  262144      res4b16_relu[0][0]
__________________________________________________________________________________________________
bn4b17_branch2a (BatchNormaliza (None, 16, 16, 256)  1024        res4b17_branch2a[0][0]
__________________________________________________________________________________________________
scale4b17_branch2a (Scale)      (None, 16, 16, 256)  512         bn4b17_branch2a[0][0]
__________________________________________________________________________________________________
res4b17_branch2a_relu (Activati (None, 16, 16, 256)  0           scale4b17_branch2a[0][0]
__________________________________________________________________________________________________
res4b17_branch2b_zeropadding (Z (None, 18, 18, 256)  0           res4b17_branch2a_relu[0][0]
__________________________________________________________________________________________________
res4b17_branch2b (Conv2D)       (None, 16, 16, 256)  589824      res4b17_branch2b_zeropadding[0][0
__________________________________________________________________________________________________
bn4b17_branch2b (BatchNormaliza (None, 16, 16, 256)  1024        res4b17_branch2b[0][0]
__________________________________________________________________________________________________
scale4b17_branch2b (Scale)      (None, 16, 16, 256)  512         bn4b17_branch2b[0][0]
__________________________________________________________________________________________________
res4b17_branch2b_relu (Activati (None, 16, 16, 256)  0           scale4b17_branch2b[0][0]
__________________________________________________________________________________________________
res4b17_branch2c (Conv2D)       (None, 16, 16, 1024) 262144      res4b17_branch2b_relu[0][0]
__________________________________________________________________________________________________
bn4b17_branch2c (BatchNormaliza (None, 16, 16, 1024) 4096        res4b17_branch2c[0][0]
__________________________________________________________________________________________________
scale4b17_branch2c (Scale)      (None, 16, 16, 1024) 2048        bn4b17_branch2c[0][0]
__________________________________________________________________________________________________
res4b17 (Add)                   (None, 16, 16, 1024) 0           scale4b17_branch2c[0][0]
                                                                 res4b16_relu[0][0]
__________________________________________________________________________________________________
res4b17_relu (Activation)       (None, 16, 16, 1024) 0           res4b17[0][0]
__________________________________________________________________________________________________
res4b18_branch2a (Conv2D)       (None, 16, 16, 256)  262144      res4b17_relu[0][0]
__________________________________________________________________________________________________
bn4b18_branch2a (BatchNormaliza (None, 16, 16, 256)  1024        res4b18_branch2a[0][0]
__________________________________________________________________________________________________
scale4b18_branch2a (Scale)      (None, 16, 16, 256)  512         bn4b18_branch2a[0][0]
__________________________________________________________________________________________________
res4b18_branch2a_relu (Activati (None, 16, 16, 256)  0           scale4b18_branch2a[0][0]
__________________________________________________________________________________________________
res4b18_branch2b_zeropadding (Z (None, 18, 18, 256)  0           res4b18_branch2a_relu[0][0]
__________________________________________________________________________________________________
res4b18_branch2b (Conv2D)       (None, 16, 16, 256)  589824      res4b18_branch2b_zeropadding[0][0
__________________________________________________________________________________________________
bn4b18_branch2b (BatchNormaliza (None, 16, 16, 256)  1024        res4b18_branch2b[0][0]
__________________________________________________________________________________________________
scale4b18_branch2b (Scale)      (None, 16, 16, 256)  512         bn4b18_branch2b[0][0]
__________________________________________________________________________________________________
res4b18_branch2b_relu (Activati (None, 16, 16, 256)  0           scale4b18_branch2b[0][0]
__________________________________________________________________________________________________
res4b18_branch2c (Conv2D)       (None, 16, 16, 1024) 262144      res4b18_branch2b_relu[0][0]
__________________________________________________________________________________________________
bn4b18_branch2c (BatchNormaliza (None, 16, 16, 1024) 4096        res4b18_branch2c[0][0]
__________________________________________________________________________________________________
scale4b18_branch2c (Scale)      (None, 16, 16, 1024) 2048        bn4b18_branch2c[0][0]
__________________________________________________________________________________________________
res4b18 (Add)                   (None, 16, 16, 1024) 0           scale4b18_branch2c[0][0]
                                                                 res4b17_relu[0][0]
__________________________________________________________________________________________________
res4b18_relu (Activation)       (None, 16, 16, 1024) 0           res4b18[0][0]
__________________________________________________________________________________________________
res4b19_branch2a (Conv2D)       (None, 16, 16, 256)  262144      res4b18_relu[0][0]
__________________________________________________________________________________________________
bn4b19_branch2a (BatchNormaliza (None, 16, 16, 256)  1024        res4b19_branch2a[0][0]
__________________________________________________________________________________________________
scale4b19_branch2a (Scale)      (None, 16, 16, 256)  512         bn4b19_branch2a[0][0]
__________________________________________________________________________________________________
res4b19_branch2a_relu (Activati (None, 16, 16, 256)  0           scale4b19_branch2a[0][0]
__________________________________________________________________________________________________
res4b19_branch2b_zeropadding (Z (None, 18, 18, 256)  0           res4b19_branch2a_relu[0][0]
__________________________________________________________________________________________________
res4b19_branch2b (Conv2D)       (None, 16, 16, 256)  589824      res4b19_branch2b_zeropadding[0][0
__________________________________________________________________________________________________
bn4b19_branch2b (BatchNormaliza (None, 16, 16, 256)  1024        res4b19_branch2b[0][0]
__________________________________________________________________________________________________
scale4b19_branch2b (Scale)      (None, 16, 16, 256)  512         bn4b19_branch2b[0][0]
__________________________________________________________________________________________________
res4b19_branch2b_relu (Activati (None, 16, 16, 256)  0           scale4b19_branch2b[0][0]
__________________________________________________________________________________________________
res4b19_branch2c (Conv2D)       (None, 16, 16, 1024) 262144      res4b19_branch2b_relu[0][0]
__________________________________________________________________________________________________
bn4b19_branch2c (BatchNormaliza (None, 16, 16, 1024) 4096        res4b19_branch2c[0][0]
__________________________________________________________________________________________________
scale4b19_branch2c (Scale)      (None, 16, 16, 1024) 2048        bn4b19_branch2c[0][0]
__________________________________________________________________________________________________
res4b19 (Add)                   (None, 16, 16, 1024) 0           scale4b19_branch2c[0][0]
                                                                 res4b18_relu[0][0]
__________________________________________________________________________________________________
res4b19_relu (Activation)       (None, 16, 16, 1024) 0           res4b19[0][0]
__________________________________________________________________________________________________
res4b20_branch2a (Conv2D)       (None, 16, 16, 256)  262144      res4b19_relu[0][0]
__________________________________________________________________________________________________
bn4b20_branch2a (BatchNormaliza (None, 16, 16, 256)  1024        res4b20_branch2a[0][0]
__________________________________________________________________________________________________
scale4b20_branch2a (Scale)      (None, 16, 16, 256)  512         bn4b20_branch2a[0][0]
__________________________________________________________________________________________________
res4b20_branch2a_relu (Activati (None, 16, 16, 256)  0           scale4b20_branch2a[0][0]
__________________________________________________________________________________________________
res4b20_branch2b_zeropadding (Z (None, 18, 18, 256)  0           res4b20_branch2a_relu[0][0]
__________________________________________________________________________________________________
res4b20_branch2b (Conv2D)       (None, 16, 16, 256)  589824      res4b20_branch2b_zeropadding[0][0
__________________________________________________________________________________________________
bn4b20_branch2b (BatchNormaliza (None, 16, 16, 256)  1024        res4b20_branch2b[0][0]
__________________________________________________________________________________________________
scale4b20_branch2b (Scale)      (None, 16, 16, 256)  512         bn4b20_branch2b[0][0]
__________________________________________________________________________________________________
res4b20_branch2b_relu (Activati (None, 16, 16, 256)  0           scale4b20_branch2b[0][0]
__________________________________________________________________________________________________
res4b20_branch2c (Conv2D)       (None, 16, 16, 1024) 262144      res4b20_branch2b_relu[0][0]
__________________________________________________________________________________________________
bn4b20_branch2c (BatchNormaliza (None, 16, 16, 1024) 4096        res4b20_branch2c[0][0]
__________________________________________________________________________________________________
scale4b20_branch2c (Scale)      (None, 16, 16, 1024) 2048        bn4b20_branch2c[0][0]
__________________________________________________________________________________________________
res4b20 (Add)                   (None, 16, 16, 1024) 0           scale4b20_branch2c[0][0]
                                                                 res4b19_relu[0][0]
__________________________________________________________________________________________________
res4b20_relu (Activation)       (None, 16, 16, 1024) 0           res4b20[0][0]
__________________________________________________________________________________________________
res4b21_branch2a (Conv2D)       (None, 16, 16, 256)  262144      res4b20_relu[0][0]
__________________________________________________________________________________________________
bn4b21_branch2a (BatchNormaliza (None, 16, 16, 256)  1024        res4b21_branch2a[0][0]
__________________________________________________________________________________________________
scale4b21_branch2a (Scale)      (None, 16, 16, 256)  512         bn4b21_branch2a[0][0]
__________________________________________________________________________________________________
res4b21_branch2a_relu (Activati (None, 16, 16, 256)  0           scale4b21_branch2a[0][0]
__________________________________________________________________________________________________
res4b21_branch2b_zeropadding (Z (None, 18, 18, 256)  0           res4b21_branch2a_relu[0][0]
__________________________________________________________________________________________________
res4b21_branch2b (Conv2D)       (None, 16, 16, 256)  589824      res4b21_branch2b_zeropadding[0][0
__________________________________________________________________________________________________
bn4b21_branch2b (BatchNormaliza (None, 16, 16, 256)  1024        res4b21_branch2b[0][0]
__________________________________________________________________________________________________
scale4b21_branch2b (Scale)      (None, 16, 16, 256)  512         bn4b21_branch2b[0][0]
__________________________________________________________________________________________________
res4b21_branch2b_relu (Activati (None, 16, 16, 256)  0           scale4b21_branch2b[0][0]
__________________________________________________________________________________________________
res4b21_branch2c (Conv2D)       (None, 16, 16, 1024) 262144      res4b21_branch2b_relu[0][0]
__________________________________________________________________________________________________
bn4b21_branch2c (BatchNormaliza (None, 16, 16, 1024) 4096        res4b21_branch2c[0][0]
__________________________________________________________________________________________________
scale4b21_branch2c (Scale)      (None, 16, 16, 1024) 2048        bn4b21_branch2c[0][0]
__________________________________________________________________________________________________
res4b21 (Add)                   (None, 16, 16, 1024) 0           scale4b21_branch2c[0][0]
                                                                 res4b20_relu[0][0]
__________________________________________________________________________________________________
res4b21_relu (Activation)       (None, 16, 16, 1024) 0           res4b21[0][0]
__________________________________________________________________________________________________
res4b22_branch2a (Conv2D)       (None, 16, 16, 256)  262144      res4b21_relu[0][0]
__________________________________________________________________________________________________
bn4b22_branch2a (BatchNormaliza (None, 16, 16, 256)  1024        res4b22_branch2a[0][0]
__________________________________________________________________________________________________
scale4b22_branch2a (Scale)      (None, 16, 16, 256)  512         bn4b22_branch2a[0][0]
__________________________________________________________________________________________________
res4b22_branch2a_relu (Activati (None, 16, 16, 256)  0           scale4b22_branch2a[0][0]
__________________________________________________________________________________________________
res4b22_branch2b_zeropadding (Z (None, 18, 18, 256)  0           res4b22_branch2a_relu[0][0]
__________________________________________________________________________________________________
res4b22_branch2b (Conv2D)       (None, 16, 16, 256)  589824      res4b22_branch2b_zeropadding[0][0
__________________________________________________________________________________________________
bn4b22_branch2b (BatchNormaliza (None, 16, 16, 256)  1024        res4b22_branch2b[0][0]
__________________________________________________________________________________________________
scale4b22_branch2b (Scale)      (None, 16, 16, 256)  512         bn4b22_branch2b[0][0]
__________________________________________________________________________________________________
res4b22_branch2b_relu (Activati (None, 16, 16, 256)  0           scale4b22_branch2b[0][0]
__________________________________________________________________________________________________
res4b22_branch2c (Conv2D)       (None, 16, 16, 1024) 262144      res4b22_branch2b_relu[0][0]
__________________________________________________________________________________________________
bn4b22_branch2c (BatchNormaliza (None, 16, 16, 1024) 4096        res4b22_branch2c[0][0]
__________________________________________________________________________________________________
scale4b22_branch2c (Scale)      (None, 16, 16, 1024) 2048        bn4b22_branch2c[0][0]
__________________________________________________________________________________________________
res4b22 (Add)                   (None, 16, 16, 1024) 0           scale4b22_branch2c[0][0]
                                                                 res4b21_relu[0][0]
__________________________________________________________________________________________________
res4b22_relu (Activation)       (None, 16, 16, 1024) 0           res4b22[0][0]
__________________________________________________________________________________________________
res5a_branch2a (Conv2D)         (None, 8, 8, 512)    524288      res4b22_relu[0][0]
__________________________________________________________________________________________________
bn5a_branch2a (BatchNormalizati (None, 8, 8, 512)    2048        res5a_branch2a[0][0]
__________________________________________________________________________________________________
scale5a_branch2a (Scale)        (None, 8, 8, 512)    1024        bn5a_branch2a[0][0]
__________________________________________________________________________________________________
res5a_branch2a_relu (Activation (None, 8, 8, 512)    0           scale5a_branch2a[0][0]
__________________________________________________________________________________________________
res5a_branch2b_zeropadding (Zer (None, 10, 10, 512)  0           res5a_branch2a_relu[0][0]
__________________________________________________________________________________________________
res5a_branch2b (Conv2D)         (None, 8, 8, 512)    2359296     res5a_branch2b_zeropadding[0][0]
__________________________________________________________________________________________________
bn5a_branch2b (BatchNormalizati (None, 8, 8, 512)    2048        res5a_branch2b[0][0]
__________________________________________________________________________________________________
scale5a_branch2b (Scale)        (None, 8, 8, 512)    1024        bn5a_branch2b[0][0]
__________________________________________________________________________________________________
res5a_branch2b_relu (Activation (None, 8, 8, 512)    0           scale5a_branch2b[0][0]
__________________________________________________________________________________________________
res5a_branch2c (Conv2D)         (None, 8, 8, 2048)   1048576     res5a_branch2b_relu[0][0]
__________________________________________________________________________________________________
res5a_branch1 (Conv2D)          (None, 8, 8, 2048)   2097152     res4b22_relu[0][0]
__________________________________________________________________________________________________
bn5a_branch2c (BatchNormalizati (None, 8, 8, 2048)   8192        res5a_branch2c[0][0]
__________________________________________________________________________________________________
bn5a_branch1 (BatchNormalizatio (None, 8, 8, 2048)   8192        res5a_branch1[0][0]
__________________________________________________________________________________________________
scale5a_branch2c (Scale)        (None, 8, 8, 2048)   4096        bn5a_branch2c[0][0]
__________________________________________________________________________________________________
scale5a_branch1 (Scale)         (None, 8, 8, 2048)   4096        bn5a_branch1[0][0]
__________________________________________________________________________________________________
res5a (Add)                     (None, 8, 8, 2048)   0           scale5a_branch2c[0][0]
                                                                 scale5a_branch1[0][0]
__________________________________________________________________________________________________
res5a_relu (Activation)         (None, 8, 8, 2048)   0           res5a[0][0]
__________________________________________________________________________________________________
res5b_branch2a (Conv2D)         (None, 8, 8, 512)    1048576     res5a_relu[0][0]
__________________________________________________________________________________________________
bn5b_branch2a (BatchNormalizati (None, 8, 8, 512)    2048        res5b_branch2a[0][0]
__________________________________________________________________________________________________
scale5b_branch2a (Scale)        (None, 8, 8, 512)    1024        bn5b_branch2a[0][0]
__________________________________________________________________________________________________
res5b_branch2a_relu (Activation (None, 8, 8, 512)    0           scale5b_branch2a[0][0]
__________________________________________________________________________________________________
res5b_branch2b_zeropadding (Zer (None, 10, 10, 512)  0           res5b_branch2a_relu[0][0]
__________________________________________________________________________________________________
res5b_branch2b (Conv2D)         (None, 8, 8, 512)    2359296     res5b_branch2b_zeropadding[0][0]
__________________________________________________________________________________________________
bn5b_branch2b (BatchNormalizati (None, 8, 8, 512)    2048        res5b_branch2b[0][0]
__________________________________________________________________________________________________
scale5b_branch2b (Scale)        (None, 8, 8, 512)    1024        bn5b_branch2b[0][0]
__________________________________________________________________________________________________
res5b_branch2b_relu (Activation (None, 8, 8, 512)    0           scale5b_branch2b[0][0]
__________________________________________________________________________________________________
res5b_branch2c (Conv2D)         (None, 8, 8, 2048)   1048576     res5b_branch2b_relu[0][0]
__________________________________________________________________________________________________
bn5b_branch2c (BatchNormalizati (None, 8, 8, 2048)   8192        res5b_branch2c[0][0]
__________________________________________________________________________________________________
scale5b_branch2c (Scale)        (None, 8, 8, 2048)   4096        bn5b_branch2c[0][0]
__________________________________________________________________________________________________
res5b (Add)                     (None, 8, 8, 2048)   0           scale5b_branch2c[0][0]
                                                                 res5a_relu[0][0]
__________________________________________________________________________________________________
res5b_relu (Activation)         (None, 8, 8, 2048)   0           res5b[0][0]
__________________________________________________________________________________________________
res5c_branch2a (Conv2D)         (None, 8, 8, 512)    1048576     res5b_relu[0][0]
__________________________________________________________________________________________________
bn5c_branch2a (BatchNormalizati (None, 8, 8, 512)    2048        res5c_branch2a[0][0]
__________________________________________________________________________________________________
scale5c_branch2a (Scale)        (None, 8, 8, 512)    1024        bn5c_branch2a[0][0]
__________________________________________________________________________________________________
res5c_branch2a_relu (Activation (None, 8, 8, 512)    0           scale5c_branch2a[0][0]
__________________________________________________________________________________________________
res5c_branch2b_zeropadding (Zer (None, 10, 10, 512)  0           res5c_branch2a_relu[0][0]
__________________________________________________________________________________________________
res5c_branch2b (Conv2D)         (None, 8, 8, 512)    2359296     res5c_branch2b_zeropadding[0][0]
__________________________________________________________________________________________________
bn5c_branch2b (BatchNormalizati (None, 8, 8, 512)    2048        res5c_branch2b[0][0]
__________________________________________________________________________________________________
scale5c_branch2b (Scale)        (None, 8, 8, 512)    1024        bn5c_branch2b[0][0]
__________________________________________________________________________________________________
res5c_branch2b_relu (Activation (None, 8, 8, 512)    0           scale5c_branch2b[0][0]
__________________________________________________________________________________________________
res5c_branch2c (Conv2D)         (None, 8, 8, 2048)   1048576     res5c_branch2b_relu[0][0]
__________________________________________________________________________________________________
bn5c_branch2c (BatchNormalizati (None, 8, 8, 2048)   8192        res5c_branch2c[0][0]
__________________________________________________________________________________________________
scale5c_branch2c (Scale)        (None, 8, 8, 2048)   4096        bn5c_branch2c[0][0]
__________________________________________________________________________________________________
res5c (Add)                     (None, 8, 8, 2048)   0           scale5c_branch2c[0][0]
                                                                 res5b_relu[0][0]
__________________________________________________________________________________________________
res5c_relu (Activation)         (None, 8, 8, 2048)   0           res5c[0][0]
==================================================================================================
Total params: 42,704,576
Trainable params: 42,599,232
Non-trainable params: 105,344
__________________________________________________________________________________________________

